Final_Task/Optimized_Policy_2.pth (torch, 75769 bytes, 6 tensors)

fc1.weight f4 [128, 8]
0	0xbcf00470	-0.029298991
1	0x3efbe00c	0.49194372
2	0xbeb4088f	-0.3516278
3	0xbef4a25b	-0.47780117
4	0xbeb5618a	-0.3542598
5	0x3f0d73e6	0.5525497
6	0xbe5e7830	-0.21725535
7	0x3dddcb70	0.10829818
8	0x3eb68661	0.35649398
9	0x3e9666de	0.29375356
10	0xbe911462	-0.28335863
11	0xbda0ef0a	-0.07858093
12	0x3f1a4cfc	0.6027372
13	0x3e1337b1	0.14376713
14	0xbfa1f407	-1.2652596
15	0x3ed8f373	0.42373237
16	0xbef2db24	-0.47432816
17	0x3eeb3e8a	0.4594615
18	0x3e316251	0.17322661
19	0x3e436ca3	0.1908441
20	0x3d30536a	0.0430483
21	0x3ef78f33	0.4835144
22	0x3f069a13	0.5257885
23	0xbdbdf227	-0.092747025
24	0xbf102b4b	-0.5631606
25	0x3d393869	0.045219813
26	0x3f2f021c	0.68362594
27	0xbed5563a	-0.41667348
28	0xbf9d3c58	-1.228404
29	0xbf60f242	-0.87869656
30	0xbee290e6	-0.44251174
31	0x3eee23ab	0.46511588
32	0xbb7e6242	-0.003881589
33	0xbdbac305	-0.09119228
34	0xbfa29818	-1.2702665
35	0xbf262ca5	-0.6491187
36	0xbf4cb9f2	-0.7997123
37	0x3e5d3703	0.21603017
38	0x3bce7ee9	0.00630175
39	0xbd91d50c	-0.071207136
40	0x3ef4b91f	0.47797486
41	0x3e352a57	0.17691933
42	0xbeac3ec8	-0.33641648
43	0xbf205a0d	-0.62637407
44	0xbf773b95	-0.9657529
45	0x3b9206f0	0.0044563934
46	0xbf32ee10	-0.69894505
47	0xbf700fd5	-0.9377416
48	0xbee27257	-0.4422786
49	0xbf081dd8	-0.5317054
50	0x3f7281ed	0.947295
51	0xbe663364	-0.22480541
52	0xbebaf80f	-0.3651738
53	0x3d31e472	0.043430753
54	0x3f16746c	0.58771396
55	0x3edf909a	0.4366501
56	0x3ddb6189	0.10711963
57	0xbf0691a3	-0.52565974
58	0xbeb9815b	-0.36231503
59	0xbeeb3ec7	-0.45946333
60	0x3ef3f718	0.47649455
61	0x3efe86ea	0.49712306
62	0xbefb9408	-0.49136376
63	0x3c6002ba	0.013672525
64	0x3eb22dd0	0.34800577
65	0xbc8b0ae9	-0.016972976
66	0x3ed0402c	0.4067396
67	0x3e3fb8c1	0.18722822
68	0xbefdda77	-0.49580738
69	0x3ebefed6	0.373038
70	0xbd4f2bb3	-0.050578784
71	0xbf4c05d3	-0.7969639
72	0x3db77304	0.08957484
73	0x3eed12c3	0.46303377
74	0x3d4f4d01	0.050610546
75	0x3ece6b45	0.40316215
76	0xbe29ec54	-0.16594058
77	0xbf3d30b1	-0.7390242
78	0xbf87ef91	-1.0619985
79	0xbf028506	-0.5098423
80	0xbf176713	-0.59141654
81	0x3f22af07	0.6354832
82	0x3f0d2f92	0.5515071
83	0xbed5df1a	-0.41771775
84	0xbd765d6c	-0.060147688
85	0x3e7f7fda	0.24951115
86	0xbf65925c	-0.8967645
87	0xbde1c987	-0.110247664
88	0x3caaa5d1	0.02083102
89	0xbda12e16	-0.07870118
90	0x3e6dbae1	0.2321582
91	0x3e1d8232	0.15381697
92	0xbea74c06	-0.3267519
93	0x3e377de5	0.17919119
94	0xbe9957ea	-0.29949886
95	0xbf21a6f6	-0.6314539
96	0x3e87b3ce	0.26504368
97	0x3e19ea33	0.15030746
98	0xbe994f74	-0.2994343
99	0xbe8b3df3	-0.271957
100	0x3efabbe3	0.4897147
101	0x3f655464	0.89581895
102	0xbedba208	-0.42897058
103	0xbf2378b2	-0.6385604
104	0x3cf97762	0.030452434
105	0x3daa8d24	0.08327702
106	0xbfb9b1cf	-1.4507388
107	0xbf5a5b86	-0.85295904
108	0x3dc83702	0.09776117
109	0xbca62df1	-0.020285578
110	0xbdf1dcd1	-0.118096955
111	0x3e0ef516	0.1396068
112	0xbf24e585	-0.6441272
113	0x3f2ff4ce	0.6873292
114	0x3eb8bf12	0.36083275
115	0xbed6745c	-0.4188565
116	0xbf587444	-0.8455241
117	0xbe8fb437	-0.2806718
118	0x3d518cf7	0.051159825
119	0xbf298133	-0.6621277
120	0x3dec1e2b	0.115291916
121	0xbcb1682a	-0.021656115
122	0xbefef1fd	-0.49793997
123	0xbe1a34a2	-0.1505914
124	0xbdc06ed0	-0.09396136
125	0xbecc2170	-0.3986926
126	0xbf4e671b	-0.80626076
127	0x3e54d3cc	0.20783919
128	0xbded4f20	-0.115873575
129	0xbe5aeb7b	-0.21378891
130	0x3ed7397c	0.42036045
131	0xbdf031fd	-0.117282845
132	0xbec336fa	-0.3812788
133	0xbf4eb658	-0.80746984
134	0x3eb6d49f	0.35709092
135	0x3e8e1099	0.27747038
136	0xbe82b2bd	-0.2552699
137	0x3df1e897	0.11811941
138	0xbe651735	-0.22372134
139	0x3ebab892	0.3646894
140	0x3ef4d982	0.47822195
141	0x3f488e7d	0.7834242
142	0x3f194da3	0.5988409
143	0xbf50141f	-0.812807
144	0xbeef1bb5	-0.46700826
145	0xbcd802a7	-0.026368452
146	0x3ec22163	0.37916097
147	0xbef4fa07	-0.47847006
148	0xbe8c2f17	-0.27379677
149	0xbf15feb3	-0.58591765
150	0xbfb41e7f	-1.4071807
151	0x3e867a9b	0.26265416
152	0xbf03e863	-0.5152647
153	0x3f0ac01e	0.541994
154	0x3e677461	0.22602989
155	0xbf09e937	-0.5387148
156	0x3e95acc3	0.2923337
157	0xbefcf885	-0.49408355
158	0xbea93025	-0.33044544
159	0xbf5daa53	-0.8658802
160	0xbe055173	-0.13019352
161	0x3d0bdecf	0.034148034
162	0xbf60a7d2	-0.87756073
163	0xbf826f02	-1.0190127
164	0x3ebbf658	0.36711383
165	0x3dd04968	0.10170251
166	0xbf26dd4f	-0.6518144
167	0x3ec423a9	0.38308457
168	0xbeee0135	-0.46485296
169	0x3e8b407e	0.2719764
170	0x3f25337e	0.64531696
171	0xbea0bce1	-0.31394103
172	0x3e52b0d6	0.2057527
173	0x3f1b9131	0.6076842
174	0xbf96ad92	-1.177172
175	0x3d8d253b	0.06891867
176	0xbd175d85	-0.03695442
177	0x3dc98127	0.09839087
178	0x3ee94751	0.45562223
179	0xbf143d87	-0.57906383
180	0xbe560ed8	-0.209041
181	0x3ddfaefa	0.10922046
182	0xbe117e36	-0.14208302
183	0x3cb72198	0.022354886
184	0x3e335376	0.17512307
185	0x3ece224a	0.40260535
186	0x3d721a3f	0.05910706
187	0xbea4238b	-0.32058367
188	0xbf347938	-0.70497465
189	0x3f324c9f	0.69648165
190	0x3e26dad4	0.16294414
191	0x3e63bd0c	0.22240084
192	0xbf0bda84	-0.54630303
193	0xbeef0e84	-0.46690762
194	0xbebaf794	-0.36517012
195	0xbf20a650	-0.6275377
196	0xbe5a7dee	-0.21337101
197	0x3e51649d	0.20448537
198	0xbe981be8	-0.2970879
199	0x3d7a1bf2	0.061061807
200	0xbd133e29	-0.035947952
201	0x3f0644a3	0.5244848
202	0xbe596e3b	-0.21233456
203	0xbed7cac4	-0.42146885
204	0xbefba4cd	-0.4914917
205	0x3f59f0c5	0.8513301
206	0xbeeea360	-0.4660902
207	0x3cdffb41	0.027341487
208	0x3e8059c9	0.250685
209	0x3ec9b738	0.39397597
210	0xbf3a1b8a	-0.7269827
211	0xbf0121f3	-0.5044243
212	0xbf932b3a	-1.1497567
213	0xbd14f26f	-0.036364015
214	0xbf397597	-0.7244505
215	0xbf7e7543	-0.9939768
216	0xbdb41f73	-0.08795061
217	0xbd43a533	-0.047764968
218	0x3f1940ee	0.598647
219	0xbf426fde	-0.75951946
220	0xbe02061a	-0.1269764
221	0x3eb4bb01	0.35298923
222	0x3de247f1	0.11048878
223	0x3d639a1b	0.05556689
224	0xbeb69690	-0.35661745
225	0x3eedd43a	0.4645098
226	0xbeb15033	-0.346315
227	0xbe9c9364	-0.305812
228	0xbdbfcaeb	-0.093648754
229	0x3e0cabc6	0.13737401
230	0xbdf0fe2b	-0.11767229
231	0x3e9dff97	0.30859062
232	0xbc2f654e	-0.010705305
233	0x3f19f767	0.6014313
234	0x3e8a6c9c	0.27035987
235	0xbedc6d36	-0.4305207
236	0x3e11e28b	0.14246576
237	0xbe4b0466	-0.19825897
238	0xbe601312	-0.21882275
239	0x3d87ba79	0.06627364
240	0x3ea00f24	0.3126155
241	0xbd626b75	-0.05527826
242	0x3d88240b	0.066475
243	0x3fb1a3f6	1.3878162
244	0x3efabd12	0.48972374
245	0xbe50b948	-0.20383179
246	0x3f157c4a	0.58392775
247	0xbf5a45c9	-0.85262734
248	0xbed6500f	-0.41857955
249	0x3e6a97ea	0.22909513
250	0xbee2adbe	-0.4427318
251	0x3c544360	0.012955517
252	0x3f79a7e2	0.97521794
253	0x3f1333cc	0.5750091
254	0x3ca4dba6	0.020124268
255	0xbea92328	-0.33034635

fc1.bias f4 [128]
0	0x3e72a67b	0.2369632
1	0xbeb82e84	-0.3597299
2	0xbd5a9554	-0.053365067
3	0xbb9f2443	-0.0048566177
4	0x3d86563f	0.06559419
5	0x3efcfb35	0.49410406
6	0x3df714ef	0.1206454
7	0xbe846716	-0.25859898
8	0x3e015555	0.12630208
9	0x3e6b69cc	0.22989577
10	0x3e053f10	0.13012338
11	0x3e903824	0.28167832
12	0xbefef8f3	-0.49799308
13	0xbcb345e9	-0.021883922
14	0xbdff3a28	-0.12462264
15	0x3ea49096	0.3214156
16	0xbe3450a4	-0.17608887
17	0x3eab1870	0.33417082
18	0xbf114f1f	-0.56761354
19	0xbdf7465d	-0.120739676
20	0x3ca659c5	0.020306477
21	0x3e9eda3b	0.31025872
22	0x3f029c90	0.51020145
23	0x3ed24a02	0.41072088
24	0xbe4d80f0	-0.20068717
25	0x3efb1886	0.49042147
26	0x3e82ea98	0.25569606
27	0x3e843468	0.25821233
28	0x3f080fe7	0.53149265
29	0x3f05979d	0.5218447
30	0xbef99163	-0.48743734
31	0xbe7f68f0	-0.24942374
32	0x3f188588	0.5957875
33	0x3e8c3193	0.27381572
34	0x3f18fc44	0.59759927
35	0x3d9237c7	0.07139545
36	0xbd489067	-0.048965838
37	0x3eb47788	0.35247445
38	0x3ead066a	0.33793956
39	0x3ee9a117	0.45630714
40	0xbed71d2f	-0.42014453
41	0xbe6d89f9	-0.23197164
42	0x3e911636	0.28337258
43	0x3e7724a1	0.24135067
44	0x3eab413d	0.3344821
45	0x3ec40abf	0.3828945
46	0x3c1c1360	0.009526104
47	0xbd08de14	-0.033414915
48	0x3e96975d	0.29412356
49	0xbe80e400	-0.2517395
50	0x3f15a033	0.5844757
51	0xbefec208	-0.4975741
52	0xbf239e7c	-0.639137
53	0x3ee525ac	0.44755304
54	0x3f0aea47	0.5426373
55	0x3ee7ca1e	0.4527139
56	0x3ec3ad66	0.3821823
57	0xbf013ff0	-0.50488186
58	0x3ecd0504	0.4004289
59	0x3d05f3eb	0.03270332
60	0x3e9f68dc	0.3113469
61	0x3ef46604	0.47734082
62	0x3ee3314e	0.44373554
63	0x3e9c130d	0.30483285
64	0xbdee961d	-0.116497256
65	0xbe8616d4	-0.2618929
66	0x3d8d15df	0.06888937
67	0x3ded192b	0.11577066
68	0xbeda7519	-0.42667463
69	0x3e572e45	0.21013744
70	0x3e460152	0.19336441
71	0x3e60a0c4	0.21936327
72	0x3e8f7403	0.28018197
73	0xbde552a7	-0.11197405
74	0x3dc85e73	0.0978364
75	0x3dd9808e	0.10620223
76	0xbc08d4e9	-0.008351543
77	0xbdc444ad	-0.09583411
78	0x3e773e0e	0.24144766
79	0x3f083607	0.5320744
80	0xbe836361	-0.25661758
81	0x3ee448db	0.44586834
82	0xbe6800de	-0.22656581
83	0xbf1c7902	-0.61122143
84	0x3eb0060e	0.3437962
85	0x3d827747	0.063704066
86	0xbe8c6330	-0.27419424
87	0x3e8fcfc9	0.28088215
88	0xbd019856	-0.03163942
89	0x3efeab99	0.49740294
90	0xbea0ec65	-0.31430355
91	0xbdc45dae	-0.095881805
92	0x3cdf4a43	0.02725709
93	0xbe8310ef	-0.25598857
94	0xbee76e39	-0.4520128
95	0xbebab58c	-0.36466634
96	0x3e335418	0.17512548
97	0xbe219778	-0.15780437
98	0xbea314fa	-0.3185194
99	0x3d782b0e	0.060587935
100	0xbda4dca0	-0.080498934
101	0xbc1ddecb	-0.0096356375
102	0x3d159367	0.036517527
103	0xbef08b81	-0.46981433
104	0x3e983b81	0.29732898
105	0x3b57762b	0.003287683
106	0x3e12db71	0.14341523
107	0x3ef66c26	0.48129386
108	0x3da53262	0.080662504
109	0x3f15e4f2	0.5855247
110	0xbee231eb	-0.4417871
111	0xbee083ef	-0.43850657
112	0xbbd39ad2	-0.006457665
113	0xbcc95c66	-0.024580192
114	0x3eb01c4e	0.34396595
115	0xbe66d3b2	-0.22541693
116	0x3e370a52	0.1787503
117	0x3e507906	0.20358667
118	0x3c7c82e4	0.015412066
119	0xbe6b817a	-0.2299861
120	0x3ecc9b30	0.3996215
121	0xbf02f9e1	-0.51162535
122	0x3e8b3b97	0.271939
123	0xbe818bc9	-0.2530196
124	0x3ea90374	0.33010447
125	0x3d0cb59b	0.03435288
126	0x3f033519	0.51252896
127	0x3d003d29	0.031308327

fc2.weight f4 [128, 128]
0	0xbe533f03	-0.20629506
1	0x3f5647ad	0.8370312
2	0x3d537a3b	0.05163024
3	0x3c4e9512	0.012608783
4	0xbd2d165a	-0.042257644
5	0xbddd4a8d	-0.10805235
6	0xbf581e05	-0.84420806
7	0x3ec524b6	0.3850457
8	0x3e50e7b6	0.2040089
9	0xbe8d230a	-0.27565795
10	0xbd8b06ea	-0.06788428
11	0x3d0d9830	0.034568965
12	0x3ecd77a5	0.40130344
13	0xbd68cf0d	-0.056838084
14	0x3d4cb8e2	0.049981005
15	0x3e634237	0.22193228
16	0x3efa9761	0.48943618
17	0x3d0b0f69	0.033950243
18	0x3f6bed13	0.9215862
19	0xbdc31f9e	-0.09527515
20	0xbd66861b	-0.056280237
21	0xbe0f1c63	-0.13975672
22	0xbd6357b4	-0.055503562
23	0xbe2e3cb7	-0.17015348
24	0x3f535847	0.82556576
25	0xbe80b0a1	-0.25134757
26	0xbd9caf1f	-0.07650589
27	0x3f05a526	0.5220512
28	0xbe97b9da	-0.2963398
29	0xbe3da31e	-0.18519256
30	0x3f0169e0	0.5055218
31	0x3dc468cd	0.09590302
32	0xbe828561	-0.25492385
33	0x3dda7137	0.10666125
34	0xbe99a206	-0.30006427
35	0x3e8ae901	0.27130893
36	0x3ee3074a	0.443415
37	0xbe31956e	-0.17342159
38	0x3dd198ca	0.1023422
39	0xbd7d3da2	-0.061826356
40	0x3eb91ec1	0.36156276
41	0x3ed292f9	0.41127756
42	0xbe807e68	-0.2509644
43	0xbea44dfd	-0.3209075
44	0xbed8c438	-0.42337203
45	0x3e000ff3	0.12506084
46	0xbfb627da	-1.4230912
47	0xbda3af11	-0.07992376
48	0xbe91686b	-0.28399977
49	0x3eff0d75	0.49814954
50	0xbee75e65	-0.45189205
51	0x3e89ec7b	0.26938233
52	0x3f54aa9b	0.83072823
53	0x3f159916	0.58436716
54	0xbf20296a	-0.6256319
55	0x3e4a53a1	0.19758464
56	0x3d4fe05a	0.050751068
57	0x3e555fca	0.20837322
58	0xbd64a5db	-0.055822235
59	0x3de35573	0.111002825
60	0xbc747468	-0.014920332
61	0xbf179bb5	-0.59221965
62	0xbeb02c39	-0.3440874
63	0x3e9f9eb4	0.31175768
64	0x3f2ebc90	0.68256474
65	0x3f1285b0	0.5723524
66	0x3f1914b7	0.59797233
67	0xbeab4844	-0.33453572
68	0x3e2ed338	0.17072761
69	0x3da1e029	0.07904083
70	0x3d98f8be	0.07469319
71	0x3ee4321a	0.44569474
72	0x3f1f27d3	0.6217014
73	0x3f1c09fe	0.60952747
74	0x3e76d49d	0.24104543
75	0x3dd89a4d	0.105763055
76	0xbd80b291	-0.06284059
77	0x3e2dda06	0.169777
78	0x3d919876	0.07109158
79	0x3d526452	0.051365204
80	0x3f2ba58f	0.670495
81	0xbf270d43	-0.6525461
82	0xbdd0c90f	-0.10194599
83	0x3cc95851	0.024578245
84	0xbd5c6cfb	-0.05381487
85	0x3f0e7122	0.55641377
86	0x3e1cb3ba	0.15302935
87	0x3f0237a6	0.5086616
88	0x3f4d0fe3	0.80102366
89	0x3eab3031	0.33435205
90	0x3f59790d	0.84950334
91	0xbf219224	-0.6311362
92	0x3e602b42	0.21891502
93	0xbd2cc1f5	-0.04217716
94	0xbfa637d5	-1.2985789
95	0xbf5ec686	-0.8702167
96	0x3e04fa3e	0.12986085
97	0x3f4fce81	0.81174475
98	0x3f842176	1.0322711
99	0xbd86bbe5	-0.06578807
100	0x3f1d7d02	0.6151887
101	0xbecaed9b	-0.39634404
102	0xbd92e171	-0.07171906
103	0x3f4b95a7	0.79525226
104	0xbf1891c6	-0.5959743
105	0xbfb32a3e	-1.3997266
106	0xbdf9aa4d	-0.121906854
107	0x3cf8509a	0.030311871
108	0xbe726f4c	-0.23675269
109	0xbeb3b671	-0.3510013
110	0x3f3ec526	0.74519575
111	0xbe4f57dc	-0.2024836
112	0x3e495dc4	0.19664675
113	0xbea483e9	-0.3213189
114	0x3dc68fdd	0.096954085
115	0x3f8f416d	1.1191841
116	0x3e302e9c	0.1720528
117	0x3e84f8b8	0.25971007
118	0xbedcecd6	-0.4314944
119	0x3f635dae	0.8881482
120	0x3bf8d083	0.007593216
121	0x3eb5f6fc	0.35539997
122	0xbf236196	-0.6382078
123	0x3ed6f71b	0.41985402
124	0x3e80129a	0.25014192
125	0x3f3325dd	0.6997965
126	0xbe9d552b	-0.3072904
127	0x3f2fb1df	0.68630785
128	0xbe0feedf	-0.14055966
129	0x3e2d1600	0.16902924
130	0xbe14bfdc	-0.14526314
131	0x3ea15203	0.31507882
132	0x3ec08177	0.37598774
133	0xbe050837	-0.12991415
134	0x3e77554c	0.24153632
135	0xbc0c01f2	-0.008545386
136	0x3e8b5b84	0.27218258
137	0xbe10be54	-0.14135104
138	0xbc38742a	-0.011258164
139	0x3e5e8df7	0.21733843
140	0xbfacb4bd	-1.3492657
141	0x3ef2652d	0.47342816
142	0xbd967763	-0.0734699
143	0xbe034fb4	-0.12823373
144	0xbc540c8a	-0.012942443
145	0xbf2b25e5	-0.668547
146	0xbecb0aea	-0.39656764
147	0xbe0fde7b	-0.14049713
148	0x3e17c4cd	0.14821167
149	0x3ce25948	0.027630463
150	0x3e2a54a4	0.1663385
151	0x3e3d3def	0.18480657
152	0x3ec55848	0.38543916
153	0x3d90c830	0.07069433
154	0xbea09dd5	-0.31370416
155	0x3ee82fdc	0.45349014
156	0xbdd268b9	-0.102738805
157	0x3d41e08e	0.047333293
158	0xbeef0929	-0.46686676
159	0xbfbff72c	-1.4997306
160	0x3d3ea5a3	0.046544682
161	0x3da2ac04	0.079429656
162	0x3cfec1d1	0.031098278
163	0x3e11cf39	0.14239205
164	0xbf154aeb	-0.5831744
165	0x3de4227f	0.11139392
166	0x3e5f134f	0.2178471
167	0x3e07920b	0.13239305
168	0xbf1e3575	-0.6180032
169	0xbec075bc	-0.37589824
170	0x3cc1b593	0.023646152
171	0xbc7587a8	-0.014985956
172	0x3e269b51	0.16270186
173	0xbeb1b444	-0.34707844
174	0x3f785112	0.96998703
175	0x3f4ec855	0.8077443
176	0x3ee62f65	0.44958034
177	0xbf4e75d5	-0.8064855
178	0x3e73afb5	0.23797496
179	0xbfa58bdc	-1.2933307
180	0xbe6c488f	-0.23074554
181	0x3ebefd85	0.37302795
182	0x3c8c5804	0.017131813
183	0x3e8090bc	0.25110424
184	0x3e6325f8	0.22182453
185	0xbf29f7b8	-0.66393614
186	0xbd81a9f6	-0.063312456
187	0x3dc50618	0.09620303
188	0xbf375264	-0.71610093
189	0x3e723d6b	0.23656242
190	0x3ecd4bc6	0.40096873
191	0x3ebfe219	0.37477186
192	0x3e3c1f1c	0.18371242
193	0xbe5cf638	-0.215783
194	0xbedbf52a	-0.42960483
195	0xbebc95be	-0.36832994
196	0xbe3aae7b	-0.18230622
197	0x3eaa76fa	0.33293897
198	0xbd01ad8e	-0.031659655
199	0xbe3e3378	-0.18574321
200	0xbe855e4e	-0.2604851
201	0x3edb25f2	0.42802387
202	0x3e4b32b0	0.19843554
203	0xbdf753e3	-0.12076547
204	0x3e102e7d	0.14080234
205	0x3e1b8531	0.15187527
206	0x3c7bfa8a	0.015379557
207	0xbd6fa211	-0.058504168
208	0x3e2d5933	0.16928558
209	0x3db1a9c3	0.086749576
210	0xbd8dc061	-0.06921459
211	0x3e0d1a0a	0.13779464
212	0x3df8ecb9	0.12154526
213	0xbd04736a	-0.03233663
214	0x3ed0f4f1	0.40811875
215	0x3e3b3c75	0.18284781
216	0xbe4bccec	-0.1990239
217	0x3f1fe6dd	0.62461644
218	0x3f09267d	0.53574353
219	0x3f6e9285	0.9319232
220	0x3ecfcb93	0.40585002
221	0xbd10ab4d	-0.035319615
222	0x3e9c973d	0.30584136
223	0x3f398808	0.7247319
224	0xbd954f8e	-0.072905645
225	0x3f07d28b	0.5305564
226	0x3e1ad5f2	0.15120676
227	0xbdb82a64	-0.0899246
228	0x3f1dd6eb	0.61656064
229	0x3f076a99	0.5289703
230	0xbe5992ff	-0.21247481
231	0xbe931075	-0.28723493
232	0x3d1180ce	0.03552323
233	0x3f04147c	0.51593757
234	0xbcabf14d	-0.020989085
235	0x3d4338e1	0.047661666
236	0x3d87b4c9	0.06626279
237	0x3e0c94b6	0.13728604
238	0x3d16b84a	0.036796845
239	0xbd0d6c20	-0.034526944
240	0xbeb2eaf4	-0.3494488
241	0x3ea36fa4	0.31921113
242	0xbbab62a1	-0.0052302633
243	0xbeae5583	-0.34049615
244	0x3ddb426b	0.107060276
245	0x3e7b53c1	0.24543668
246	0x3e716b3d	0.23576064
247	0x3d3fb3fb	0.046802502
248	0xbd43e1fd	-0.04782294
249	0xbeb6f198	-0.35731196
250	0xbe17f26c	-0.1483857
251	0x3e88b7a9	0.26702622
252	0xbe26f9c7	-0.1630622
253	0x3ea0f5ee	0.3143763
254	0x3e59dba4	0.21275192
255	0x3d371466	0.044697188

fc2.bias f4 [128]
0	0xbf10c26b	-0.5654666
1	0x3e85922f	0.26088092
2	0x3c8b453f	0.017000793
3	0xbe239d31	-0.15977933
4	0xbdcaa8df	-0.09895491
5	0x3d9d43bf	0.07678937
6	0xbd98e6af	-0.074658744
7	0xbed83f68	-0.42235875
8	0x3ec5fe4b	0.38670573
9	0xbeffff90	-0.49999666
10	0xbd83660f	-0.064159505
11	0xbd318c6d	-0.04334681
12	0x3cc32624	0.023821898
13	0xbe3e4776	-0.18581948
14	0xbe3932aa	-0.18085733
15	0x3d443d4d	0.047910023
16	0x3bb55ef8	0.005535003
17	0xbd7ce75a	-0.06174407
18	0x3d84d6a1	0.0648625
19	0xbe13d4c7	-0.14436637
20	0xbf051dc9	-0.51998574
21	0xbe149d1b	-0.14513056
22	0xbd347df9	-0.04406545
23	0x3e096e23	0.1342092
24	0x3d0eff6d	0.03491156
25	0x3e79d9cf	0.24399494
26	0xbddcfc18	-0.107902706
27	0x3e2f2d4b	0.17107122
28	0x3e002752	0.12515
29	0xbda2a8f7	-0.07942384
30	0x3e88c1e6	0.26710433
31	0xbdd9bec0	-0.10632086
32	0xbe1bf4b4	-0.15230066
33	0xbf0727a2	-0.5279485
34	0x3e9cb94a	0.30610114
35	0x3e484aa4	0.19559723
36	0xbc675847	-0.014120168
37	0x3d898d46	0.06716399
38	0x3eaab7be	0.3334331
39	0xbdb17f37	-0.086668424
40	0xbd5cef41	-0.053939108
41	0x3eb55840	0.35418892
42	0xbe289434	-0.16462785
43	0x3da6bd65	0.08141593
44	0xbd76269b	-0.06009541
45	0xbd67045e	-0.05640065
46	0x3e2e09bf	0.16995905
47	0x3cba5702	0.022746567
48	0xbf118a96	-0.5685209
49	0xbd423ee5	-0.047423262
50	0x3e158161	0.14600135
51	0xbeb785b3	-0.35844192
52	0xbce968a8	-0.028492287
53	0x3e6636d6	0.22481856
54	0xba06e611	-0.0005145977
55	0xbe0cb008	-0.13739026
56	0xbe11273d	-0.14175124
57	0xbdb4fcf0	-0.088373065
58	0xbdd221ab	-0.10260328
59	0x3dfac529	0.122446366
60	0xbf1e6342	-0.61870205
61	0x3de4b22c	0.11166796
62	0xbd7330e7	-0.05937281
63	0xbe0e786b	-0.13913123
64	0xbdfdbd47	-0.123896174
65	0xbd000479	-0.031254265
66	0x3e86959c	0.26286018
67	0xbd8a97e4	-0.06767252
68	0xbe69c010	-0.22827172
69	0x3ed6bcfa	0.41941053
70	0x3caff42b	0.021478733
71	0x3b19f447	0.0023491548
72	0xbf1f7098	-0.6228118
73	0xbe068431	-0.13136365
74	0xbd2aaf9d	-0.041671384
75	0x3d51ca8c	0.051218554
76	0xbe13499f	-0.14383553
77	0x3ebe00b6	0.37109917
78	0xbd47af86	-0.048751377
79	0x3d144b63	0.036204707
80	0xbddd0243	-0.10791447
81	0xbe868a9c	-0.26277626
82	0xbd9c2c63	-0.076256536
83	0xbc8d1723	-0.017222947
84	0xbe19568c	-0.14974421
85	0x3e93f7e7	0.28900072
86	0x3e9a50ee	0.3013987
87	0x3ec82634	0.39091647
88	0xbe18b015	-0.1491092
89	0xbd8bfbf8	-0.068351686
90	0x3e934e5c	0.2877072
91	0x3b8ebe66	0.0043561934
92	0x3e9c8193	0.30567607
93	0x3cfa4aab	0.030553183
94	0x3e0ac6d2	0.13552406
95	0x3dfe0948	0.12404114
96	0xbd0f66c6	-0.03501012
97	0xbdbd0ec7	-0.09231334
98	0x3e66da84	0.22544295
99	0xbe09ffbc	-0.13476461
100	0xbe31c3a1	-0.17359783
101	0x3ef8dfef	0.48608348
102	0xbc5c64fb	-0.01345181
103	0xbc8f1581	-0.017466309
104	0xbedbfe92	-0.4296766
105	0x3e3480d8	0.17627275
106	0x3eb3d357	0.35122177
107	0xbef4d067	-0.47815248
108	0x3e5e6153	0.21716814
109	0xbe1e5287	-0.15461169
110	0x3eb45eb4	0.35228503
111	0xbee3c98d	-0.4448971
112	0x3d3284ed	0.0435838
113	0xbe864fb1	-0.26232675
114	0xbe00051f	-0.12501954
115	0x3ea060df	0.31323907
116	0x3e497c49	0.19676317
117	0xbdf35a40	-0.11882448
118	0x3dccb48d	0.09995375
119	0x3e1eec86	0.15519914
120	0xbe1d2e56	-0.15349707
121	0x3e7d86ce	0.24758455
122	0x3dc315af	0.0952562
123	0xbef23c96	-0.47311848
124	0xbbf842c1	-0.007576317
125	0xbeceaf92	-0.40368325
126	0xbe09513b	-0.13409893
127	0xbd7f09e9	-0.06226531

out.weight f4 [4, 128]
0	0xbf37bf56	-0.7177633
1	0x3f2f93e0	0.68585014
2	0x3cd2ae73	0.02571795
3	0xbedfa2d1	-0.43678907
4	0xbef11d6f	-0.4709277
5	0x3f3218b8	0.6956897
6	0x3ca5fa37	0.020260913
7	0xbf60d942	-0.8783151
8	0x3ef459d8	0.47724795
9	0xbf36d3be	-0.7141684
10	0x3bb3b4b2	0.005484187
11	0xbed652ea	-0.41860133
12	0x3d8d1278	0.06888288
13	0xbee73e96	-0.45164937
14	0xbed074c3	-0.40714082
15	0x3f5c821b	0.86136025
16	0xbee595c6	-0.4484083
17	0xbe93797d	-0.28803626
18	0xbba80ed2	-0.00512872
19	0xbf5e90f8	-0.86939955
20	0xbf1abb75	-0.60442287
21	0xbecf6f30	-0.40514517
22	0x3f46c174	0.77638936
23	0x3f5a14b1	0.8518782
24	0x3f82a1da	1.0205643
25	0x3ec3b559	0.38224295
26	0xbf042093	-0.51612204
27	0x3f02f7de	0.51159465
28	0x3f22294d	0.6334427
29	0x3d7369a1	0.059426907
30	0x3ed7a6f0	0.4211955
31	0xbeeac48f	-0.45853087
32	0xbebfdcdc	-0.3747319
33	0xbf5787e4	-0.8419173
34	0x3eefd9d3	0.46845874
35	0x3f306a59	0.68912274
36	0xbf0932e6	-0.5359329
37	0xbe8e7ce1	-0.2782965
38	0x3ec57091	0.38562444
39	0xbd4d5670	-0.05013126
40	0x3f13b6ce	0.5770081
41	0x3ed9a546	0.42508906
42	0xbed677e6	-0.4188835
43	0x3eebd51b	0.46061024
44	0xbf08339a	-0.5320374
45	0x3f856e7c	1.0424342
46	0x3f00a8c2	0.50257504
47	0xbf210ef7	-0.6291346
48	0xbf3e9315	-0.7444318
49	0xbf27b689	-0.655129
50	0xbead0282	-0.33790976
51	0xbf12dbf6	-0.57366884
52	0xbeebeea1	-0.46080497
53	0x3f5fb720	0.873888
54	0xbefa8457	-0.48929092
55	0xbee5adee	-0.4485926
56	0xbf425371	-0.7590857
57	0xbea9077a	-0.33013517
58	0x3ceaed6d	0.028677667
59	0xbeafabe8	-0.34310842
60	0xbf1077a5	-0.56432563
61	0x3f87d3e4	1.0611539
62	0x3d8e0aa8	0.06935626
63	0xbec824f7	-0.39090702
64	0xbee6fb67	-0.4511368
65	0xbf53f9c1	-0.8280297
66	0x3f17f049	0.5935102
67	0xbf2de1d1	-0.67922693
68	0xbf2c6693	-0.67344016
69	0x3ef8c680	0.48588943
70	0xbe96a0e0	-0.29419613
71	0x3da902c4	0.082524806
72	0xbf11ee5d	-0.5700434
73	0xbf025e55	-0.5092519
74	0xbf319912	-0.6937419
75	0x3d5489f8	0.05188939
76	0xbecf6c41	-0.4051228
77	0x3f4d7312	0.8025371
78	0x3f2f3e5a	0.68454516
79	0x3ea6321a	0.324601
80	0x3d30f89f	0.043205854
81	0x3ee6509e	0.4498338
82	0xbf07cf51	-0.53050715
83	0xbef75945	-0.48310295
84	0xbea335ce	-0.31876987
85	0x3eec08aa	0.4610036
86	0x3f024169	0.5088106
87	0x3f0a4336	0.54008806
88	0xbf0f812b	-0.5605647
89	0xbee2a89a	-0.44269258
90	0xbe3d869f	-0.18508385
91	0xbe4651d0	-0.19367146
92	0x3f3f75ce	0.7478913
93	0xbef1847a	-0.47171384
94	0x3f1fa275	0.62357265
95	0x3f2a9785	0.6663745
96	0xbf05ee13	-0.523164
97	0xbeeecdd9	-0.46641424
98	0x3de0f046	0.109833285
99	0xbf0287f4	-0.509887
100	0xbf2a4a14	-0.66519284
101	0x3e5634f1	0.20918633
102	0xbefa63a2	-0.4890414
103	0x3fa54ce7	1.2914094
104	0xbf17d10a	-0.59303343
105	0x3f9ea08c	1.2392745
106	0x3f066728	0.52501154
107	0xbecfcb9f	-0.40585038
108	0x3ef7a352	0.4836679
109	0xbedab001	-0.42712405
110	0x3f09dda6	0.53853834
111	0xbf126652	-0.5718738
112	0x3e2bab41	0.16764547
113	0xbf2f0245	-0.6836284
114	0xbf2172b3	-0.6306564
115	0x3f2645dd	0.6495035
116	0x3eae31f3	0.34022483
117	0xbebcbd8d	-0.36863366
118	0x3f279e26	0.6547569
119	0x3f3d6f8a	0.7399832
120	0xbef160ca	-0.47144157
121	0x3e1c5257	0.15265785
122	0x3f72d429	0.9485498
123	0xbf2a7f8d	-0.6660088
124	0x3d27508a	0.040848292
125	0xbf42fc0a	-0.7616583
126	0xbf0f0763	-0.55870646
127	0x3f65420d	0.8955391
128	0xbf974091	-1.1816579
129	0x3f8c207f	1.0947417
130	0xbcc35464	-0.023843952
131	0xbeea996f	-0.45820186
132	0xbeef9b66	-0.46798247
133	0x3f30957a	0.68978083
134	0x3d7e6ad3	0.062113594
135	0xbf567b31	-0.83781725
136	0x3ef20c5e	0.4727506
137	0xbf3f5768	-0.74742746
138	0x3d9ea242	0.07745792
139	0xbd05108c	-0.032486483
140	0x3d9d7db7	0.07689994
141	0xbec169f9	-0.37776163
142	0xbefe4a66	-0.49666137
143	0x3f3dba42	0.7411233
144	0xbefdd0bb	-0.4957331
145	0xbeb267aa	-0.34844714
146	0x3d125239	0.035722945
147	0xbf78d15f	-0.97194475
148	0xbf8c9a5f	-1.098461
149	0xbf08ebca	-0.53484786
150	0x3f39944a	0.72491896
151	0x3f3f5bc1	0.7474938
152	0x3f82821e	1.0195959
153	0x3ef16dc2	0.4715405
154	0xbf25635a	-0.64604723
155	0x3e65331d	0.2238278
156	0x3f2d63df	0.67730516
157	0x3d9fddd8	0.07805985
158	0x3ebb7531	0.36612847
159	0xbef840e8	-0.4848702
160	0xbe8adc28	-0.2712109
161	0xbf93588f	-1.1511401
162	0x3ee97dbf	0.4560375
163	0x3f2d9f4b	0.67821187
164	0xbf1bf12a	-0.6091486
165	0x3da0f725	0.07859639
166	0x3ef6d803	0.4821168
167	0xbcaa7fe8	-0.020812944
168	0x3e1e7efc	0.15478128
169	0x3f47a9d1	0.77993494
170	0x3c65e806	0.0140323695
171	0x3f111d80	0.5668564
172	0xbec6ab3a	-0.3880251
173	0x3f2ae335	0.6675294
174	0x3f3dcf0c	0.74144053
175	0xbf3ff089	-0.749764
176	0xbf42a6b8	-0.7603564
177	0xbf192d16	-0.5983442
178	0xbec059db	-0.37568554
179	0xbea52d6c	-0.32261217
180	0xbf3307cd	-0.6993378
181	0x3f51bd77	0.81929725
182	0xbedebffb	-0.43505844
183	0xbf137e3b	-0.5761449
184	0xbf2a53e1	-0.6653424
185	0xbf033e21	-0.51266676
186	0x3b90f215	0.0044233897
187	0xbeef3475	-0.4671971
188	0xbf6da137	-0.9282412
189	0x3f878914	1.0588708
190	0x3d9be940	0.07612848
191	0xbea2abda	-0.31771737
192	0xbed934de	-0.42423147
193	0xbf156839	-0.58362156
194	0x3ef4900a	0.47766143
195	0xbefebb58	-0.49752307
196	0xbe0cf8af	-0.1376674
197	0x3ec1ccaa	0.3785146
198	0xbf0108cc	-0.5040405
199	0xbb33b30b	-0.002741995
200	0xbf502171	-0.8130103
201	0xbec79946	-0.38984126
202	0xbf5b1572	-0.855796
203	0x3bcb5f8b	0.006206458
204	0xbf12a062	-0.57275975
205	0x3f5e0e9f	0.8674106
206	0x3f91614f	1.1357821
207	0x3ef76092	0.48315865
208	0x3da5793a	0.08079763
209	0x3f0cb9c3	0.5497095
210	0xbf0caa98	-0.54947805
211	0xbf07ab54	-0.529958
212	0xbd8855e5	-0.06657008
213	0x3ef877b1	0.48528817
214	0x3edc08eb	0.42975554
215	0x3ec1fa6f	0.37886378
216	0xbf046c92	-0.51728165
217	0xbf0fbd4e	-0.5614823
218	0xbf28c03c	-0.65918326
219	0xbebfd871	-0.3746982
220	0x3f211442	0.62921536
221	0xbe32f947	-0.17477904
222	0x3ebc1ac0	0.3673916
223	0x3f2d87d6	0.67785394
224	0xbed61056	-0.41809338
225	0xbeb5cb2d	-0.35506573
226	0x3de60ea0	0.11233258
227	0xbf2634b3	-0.6492416
228	0xbee17593	-0.44035015
229	0x3f32404c	0.6962936
230	0xbef6a229	-0.48170593
231	0x3f9619f7	1.1726674
232	0xbf416370	-0.75542355
233	0x3ea60b75	0.32430616
234	0x3ed5e516	0.4177634
235	0xbf6d3fd8	-0.9267554
236	0x3f0141ba	0.50490916
237	0xbeabf65c	-0.33586395
238	0x3f0985ed	0.5371998
239	0xbf16e1e9	-0.5893846
240	0x3da2d2fc	0.07950398
241	0xbf40988b	-0.7523276
242	0xbf1908b7	-0.5977892
243	0x3f08d149	0.53444344
244	0x3eeb0877	0.45904896
245	0xbed8c8e0	-0.42340755
246	0x3f2b7d66	0.6698822
247	0x3f3de3a7	0.74175495
248	0xbf04030d	-0.51567155
249	0x3e1bb796	0.15206751
250	0x3f3c10ec	0.7346332
251	0xbebcacde	-0.36850637
252	0xbcec64b3	-0.02885661
253	0xbf3c76fe	-0.7361907
254	0xbeaed327	-0.3414547
255	0x3f691ee1	0.9106274

out.bias f4 [4]
0	0x3e49cf6d	0.19708033
1	0x3d9b2ac1	0.07576514
2	0x3dbadd5d	0.09124253
3	0x3e3bf80a	0.18356338
